quantum_model_final.pt (torch, 2808 bytes, 3 tensors)

pre_net.weight f4 [4, 4]
-1.205448 -0.17493019 -0.42543334 0.32224184 -0.5214742 0.53014547 -0.10618252 -0.32754713
-1.2700773 -0.09927041 0.07036142 -0.51960564 0.09927619 0.8384047 -0.19372611 0.8363531
00000000: 1f4c 9abf e620 33be 66d2 d9be e2fc a43e
00000010: 557f 05bf 9db7 073f 3976 d9bd 42b4 a7be
00000020: e591 a2bf 494e cbbd a619 903d e004 05bf
00000030: 5151 cb3d b1a1 563f 2360 46be 3d1b 563f

pre_net.bias f4 [4]
-0.4135901 -0.6249424 -0.11557074 -0.8857483
00000000: 15c2 d3be 3afc 1fbf 5ab0 ecbd 67c0 62bf

qlayer.weights f4 [3, 4, 3]
-0.5936481 2.3465993 3.8785748 4.325069 0.7642231 1.7810162 0.07118072 3.9965143
0.75625783 0.15369979 4.013392 3.9831285 1.5037374 4.07876 0.8723657 4.8109756
0.45727953 1.6065816 2.7417254 3.0029163 2.6874704 4.7584696 3.3176048 5.8056693
5.391779 1.6972506 1.9886078 1.724099 4.7225046 3.8672976 2.3741312 6.264409
5.465592 6.161557 0.4208882 0.14290152
00000000: 52f9 17bf af2e 1640 923a 7840 f766 8a40
00000010: 20a4 433f 57f8 e33f 33c7 913d e4c6 7f40
00000020: 1d9a 413f 7a63 1d3e b56d 8040 94eb 7e40
00000030: 787a c03f 3485 8240 5c53 5f3f 83f3 9940
00000040: 8b20 ea3e 77a4 cd3f 6e78 2f40 c82f 4040
00000050: 84ff 2b40 6245 9840 a353 5440 0bc8 b940
00000060: 7489 ac40 823f d93f b38a fe3f 47af dc3f
00000070: c21e 9740 ce81 7740 c4f1 1740 0a76 c840
00000080: 21e6 ae40 7a2b c540 a87e d73e c754 123e
