quantum_model_final (1).pt (torch, 4760 bytes, 8 tensors)

pre_net.0.weight f4 [16, 4]
00000000: ef47 503e 38c5 ec3e d519 5dbe b038 c53e
00000010: ad1d 873d 56d2 0e3f 77b0 2bbe 8a53 93bd
00000020: a203 35bf 457f 0a3e 8adf 64be 3daf 95be
00000030: d27d 2d3c 818d c13d d5b1 68bd 8b1a 433d
00000040: a154 b1be 5d6a 003f 701a 8abc af5f 3fbe
00000050: c706 23bf 7ef7 5ebe 0e98 70bc 426b a9bd
00000060: dbad 333e b461 80be 8b0a a4bd 9647 afbc
00000070: 8fa6 1bbf 7fc5 af3d 3d25 96be 46a1 7dbe
00000080: 5036 b13e 9e2e 3cbe a60c 5b3e 5eff 73be
00000090: e257 803e 3830 8e3d 6873 ce3e 0464 8c3b
000000a0: 1e20 36bf 8446 f53d d4b4 0cbe 5b5b 53be
000000b0: aea1 4ebf fa7b 7cbd 327e 6bbd 55f5 3ebe
000000c0: 83e0 933e 87a6 82be 19ac 233e 3858 32be
000000d0: 3381 27be 362e c8bd af69 c3bd 73d1 a23d
000000e0: 30a4 eb3c d7d9 2a3c dd54 12bd aa35 e83c
000000f0: 8d92 f83d 0d63 a6bd c52a ea3d 5ffc b13d
0.2033994 0.46244216 -0.21591885 0.38519812 0.06597457 0.557897 -0.16766535 -0.07193668
-0.7070867 0.13525112 -0.22350898 -0.2923526 0.01058908 0.09450818 -0.05681022 0.047632735
-0.3463488 0.501623 -0.01685831 -0.18688844 -0.63682216 -0.21774098 -0.01468469 -0.08272411
0.1754679 -0.25074542 -0.080098234 -0.02139644 -0.60801023 0.08582591 -0.29325286 -0.24768552
0.3461175 -0.18377158 0.21391544 -0.23827884 0.2506705 0.06942791 0.40322423 0.0042843837
-0.71142757 0.119763404 -0.13740855 -0.20640318 -0.80715454 -0.06164167 -0.057493396 -0.18648274
0.28882226 -0.25517675 0.15983619 -0.17416465 -0.1635788 -0.09774439 -0.09541642 0.079501055
0.028764814 0.010427914 -0.035725463 0.028345902 0.12137327 -0.08124361 0.11433939 0.08690714

pre_net.0.bias f4 [16]
00000000: b676 1dbf b650 03bf 9015 b4be f882 ecbe
00000010: e544 2b3d 0bd4 8dbc 2962 41bf 8980 eabe
00000020: 86d8 113d 16e1 b2be 092c 61be 6d52 aebd
00000030: b5e5 ae3d dbc7 32bf c6c7 b6be 0b89 753e
-0.61509264 -0.5129503 -0.351727 -0.4619367 0.04181375 -0.017313024 -0.75540406 -0.4580119
0.035606883 -0.34937352 -0.21989454 -0.08511815 0.08539907 -0.69836205 -0.3569929 0.23978059

pre_net.3.weight f4 [4, 16]
00000000: fd7a a53e 27bb 79bd c769 03be 6af2 8ebd
00000010: ae82 37be 30e4 4c3e ab05 163d 48ab cdbd
00000020: d00a 22be cc22 75bd 2917 d8bd d1f8 ca3d
00000030: 0d00 e6bd 6f8c 6dbc 2cdf 8c3c b0f1 633d
00000040: 86aa 563e 1c00 e73c cfc2 293e 8a9d 01be
00000050: ba9f 4d3e 3a6d 6a3e 23bd 313c a835 a93e
00000060: 9804 5abd 9f3f c3bd 7005 933e a77f 273e
00000070: ddf5 3abd e384 32be 6b5e d5bd 2a58 d0bc
00000080: 0020 41be 3f90 acbe 78ec b7be c27c d7bd
00000090: 9258 33be 5d1c 83be fa13 313c 6d80 d5be
000000a0: 9190 e53d 17a0 2d3e adb6 81be 7b20 26be
000000b0: c05d da3d 1a7f 22bd 504c b03e 03d6 433d
000000c0: 459d 93be 85c5 babe 14c6 8fbe 6ec1 bdbd
000000d0: a1b7 c1be 674d 73be 5f14 693d bc99 aebe
000000e0: fc84 4f3e b984 4f3e 2f62 a9be e5a4 21be
000000f0: 2c2b ff3d 40b3 7d3d 2808 5abe 37bd bb3c
0.32320395 -0.060969498 -0.1283332 -0.069798306 -0.17920944 0.20008922 0.0366265 -0.10042435
-0.15824437 -0.059847638 -0.105512924 0.09910739 -0.112304784 -0.014498814 0.01719626 0.055650413
0.20963487 0.028198294 0.1657822 -0.12657753 0.20080462 0.22893229 0.010848316 0.3304875
-0.053227037 -0.09533619 0.28715086 0.16357289 -0.04564463 -0.17433505 -0.104183994 -0.025432665
-0.18859863 -0.337038 -0.359226 -0.105218425 -0.17514256 -0.25607577 0.010807985 -0.41699544
0.112092145 0.169556 -0.25334683 -0.16223328 0.10662413 -0.039671995 0.34433222 0.04781152
-0.28830925 -0.3647882 -0.2808081 -0.092654094 -0.3783541 -0.23759995 0.056904193 -0.34101665
0.20265573 0.20265473 -0.3308272 -0.15785559 0.12459406 0.061938524 -0.21292174 0.022917373

pre_net.3.bias f4 [4]
00000000: 98a1 b1be d7f7 073e 67dd e4be 1d6c f2be
-0.346936 0.13278137 -0.44700167 -0.4734811

qlayer.weights f4 [2, 3, 4, 3]
00000000: 1dfa 6f3f 464e 5440 382d 8640 2887 9c40
00000010: dff9 c140 ec4f 5440 d910 ad40 f905 c23f
00000020: 3201 6f40 e465 a640 130f d83f af13 9a40
00000030: 5965 b540 08d1 9740 7469 9b40 c813 3c40
00000040: 3ed0 733f 4948 b9bb 18f3 7740 b179 8940
00000050: 0c56 ab40 55df fd3f dc5a 9b40 e364 9840
00000060: caf5 5640 defd 7e3f 0681 0540 fb2f b240
00000070: 688d e63e 67e0 2540 6f36 af40 227f 9d40
00000080: 6778 3540 c29b 9c40 c1db a43f ce26 ae40
00000090: 3c8e 8f3f 9b39 b940 fb55 9640 ce13 8540
000000a0: d8a1 3a40 a0ae a83f d622 2240 280b 7940
000000b0: 6e11 a43f d610 973f 7dcb 4140 2e3f ba40
000000c0: 826e d83f e103 993e a12c 7640 bfd3 a540
000000d0: 0aef 0540 8868 d53f ce5b 3140 a1eb 1940
000000e0: f8b0 9c40 319d c83f c856 903f a03f be40
000000f0: 8116 5240 8911 bc40 65e5 2c40 ab43 1d3f
00000100: 1a12 cb3f a8c7 b040 bcf5 e73f 3e4e 253f
00000110: 1c00 b240 7940 a940 d74b c540 1c52 3c40
0.9374102 3.3172774 4.19302 4.8914986 6.061752 3.317378 5.4083066 1.5158073
3.734448 5.199938 1.68796 4.814903 5.6686215 4.7442665 4.8566227 2.9387074
0.9523963 -0.005654369 3.8742123 4.296105 5.354254 1.983378 4.854841 4.7623153
3.3587518 0.9960612 2.086 5.568357 0.4502976 2.5918214 5.4753947 4.921769
2.8354738 4.8940134 1.2879564 5.442237 1.1215281 5.788282 4.6979957 4.1586676
2.9161282 1.3178291 2.5333762 3.891306 1.2817819 1.1802013 3.028045 5.8202124
1.6908724 0.29885772 3.846474 5.182098 2.0927148 1.6672525 2.7712283 2.4050066
4.8966026 1.5672971 1.1276484 5.9452667 3.2826235 5.8771405 2.7015011 0.6143138
1.5864899 5.524372 1.8121867 0.64572513 5.5625134 5.28912 6.165508 2.9425116

out.0.weight f4 [8, 1]
00000000: f3b1 a5bf 9418 dfbe e010 39bf 461a 643f
00000010: b290 783f 5b9c aebf 5f30 8cbf ddf8 fb3e
-1.2944931 -0.4357344 -0.72291374 0.8910259 0.9709579 -1.3641466 -1.0952262 0.49213305

out.0.bias f4 [8]
00000000: d324 903d 8c51 28bf dc64 da3e a259 3dbf
00000010: 4ec2 6abf a576 f83d df17 cf3e ed95 85be
0.07038274 -0.6574943 0.42655075 -0.73964894 -0.91702735 0.12132005 0.404479 -0.26090947

out.3.weight f4 [1, 8]
00000000: cc4c 3ebf 7e31 343e c1c1 1fbf e07e b1be
00000010: fb2b fb3d 6acb 25bf a501 2bbf 3994 a4bd
-0.7433593 0.17597005 -0.6240502 -0.3466711 0.12264248 -0.6476351 -0.66799384 -0.08036084
